models/clip_projection.pt (torch, 525985 bytes, 1 tensors)

weight f4 [256, 512]
00000000: 0038 39bd 9e82 08bd b5a9 a0bd c327 e8bc
00000010: 22d9 99bc 15bf 383d c3a2 783c 1239 d73c
00000020: 6f8d 883c ffb1 12bd 2234 c9bd 354a 4dbd
00000030: a3d8 08bd d1c8 8f3c 1c55 c23d a3da be3c
00000040: cd90 3e3c caa8 d6bc 17a6 57bd a651 75bd
00000050: 1303 493d 4b08 f1bb 2345 86bb 5a4a f03b
00000060: 1382 793c 1470 1f3d bfb4 4c3d aab7 6e3d
00000070: 500d db3c d5d8 9c3b b010 e03c 50b1 ac3c
00000080: 687d d33b cb29 933c 5d61 8c3c 97b2 983c
00000090: b593 193c 9f9e 94bd bf83 c23c 5673 0a3e
000000a0: 64b2 253c ab5c 043d 3587 b0bd 9a47 c1bd
000000b0: 1311 043b d767 d63c 38f4 fabc bafc 1dbc
000000c0: da1b 353d 5cc8 fcbb 9611 813d 1f3d 13bb
000000d0: dfaa b2bc 1d21 133d 9031 ba3c 4e7b 64bd
000000e0: 98d2 413d 8a92 0fbc 9126 04bd 1d3a a1bd
000000f0: 2516 473d a235 68ba aa91 89bd f3e2 a5bc
00000100: 40c7 53bd 6a33 37bc 59e3 533d 3388 d3bc
00000110: 0a8e cebc 5b24 d0bd 3acf 96bd ff5d 1abd
00000120: 8f83 853d 8544 243b aa91 8cbb ea32 183c
00000130: f96e ad3d c48e cc3c 3a23 f4bc 6232 293d
00000140: 0b27 a0bc 8abd 6bbc 855d c4bc 6067 53bd
00000150: 4411 dbbd 108b 3bbd c720 263d 04fb f1bc
00000160: 8094 2f3d 2173 603c 0bef 9d3b 7090 963d
00000170: cd43 0a3d cd17 483d a7dc 183c f96d c2bd
00000180: 77b1 323d 439d 7d3b a492 f73b 5712 5cbc
00000190: 19bf 103d e873 833c c5dd 9fbd 7cc8 383d
000001a0: ba16 0a3b 9a97 5fbc b8b5 49bd ffbb 83bd
000001b0: b0b5 a53d 872e 91bc 0892 b83b 6575 1f3c
000001c0: 15d6 893c 3e9c b1ba ec82 893b 42d6 f73c
000001d0: c07d 333b fc96 0ebd 88c6 593c f956 103d
000001e0: 158a d9bc 8914 823d 94e1 803d 7632 3e3d
000001f0: ad3b 0d3c a6b4 87bd 14d4 18bd ed04 7abd
00000200: de01 76bb 81d7 34bd 7a90 5fba 7c0d 573d
00000210: e62e 013e 34a6 333d 88d6 d93c 68e5 a7bb
00000220: abdc 803b 6598 293d a81f 81bb 6da0 de3b
00000230: 8016 b3bd 5f1f 0a3d c7d0 9d3c fae5 af3c
00000240: 39ce 5e3c 7dc5 55bd 5b6e 903d a1fe 82bc
00000250: 7f77 bcbb 3b1f 033d 842a 953c 5d92 743b
00000260: c8ed 193d e900 e7bd 6e46 48bd 0a27 91bd
00000270: c919 f2bb e2dc 08bd 251d 073d a2d4 66bd
00000280: 7d98 b3bc 6432 103c 5628 cd3c ff90 a2ba
00000290: bbef c93c 4e98 353d 2d6b a03c c672 a93d
000002a0: 959b f03c dd3e 733d 03fe 62bc a75f 793d
000002b0: 6e41 073b f681 d93b c6e9 663d be41 d6bc
000002c0: 0a0a 3d3c b767 213d df00 f03c bcf4 0fbd
000002d0: 45f9 8ebd daaa b43b a070 cb3c a346 873c
000002e0: 6ab0 b7bc 9d70 32bd 46e9 543d befc 033d
000002f0: f8fc ab3c f6a1 483d 8a44 03be ebbc 423d
00000300: 734b a5bb d006 143d 81f6 7bbc f0a7 7abd
00000310: f378 003c 764d 9abc fd32 363d 6493 d83d
00000320: 0597 b2bc 96c7 c03c 8f67 903d 6a0a afbb
00000330: 2894 67bd 67a8 b4bc 6e9f b2bd c0f8 59bc
00000340: 37b7 6bbc 8ebe 68bd 3f14 813d bf35 3fbd
00000350: ae9f 2bbc e7ca 9bbd 0b7c 9d3c 65a3 fbba
00000360: 62d9 4d3d 1071 d13c a5eb 923b 38b3 08bd
00000370: 10f7 8fbd 3ab1 9cbd 42da 2b3d 9e11 323d
00000380: b028 26bd aab6 243a 0d6d f5bc 7746 bb3c
00000390: 0d26 813d ffbc 4a3d a212 b5bc 10d0 613d
000003a0: 4928 81bc 4dfc 69bd bdb9 58bd b842 0fbd
000003b0: d02b 65bd adb3 65bc 50ea 803d 0138 0c3d
000003c0: d681 c23c df94 84bb aeb6 8cbd f503 133d
000003d0: 93aa 85bc 0ef6 003d 6cc1 3ebc 8d01 66ba
000003e0: 4bef 733b a627 7c3d da17 b2bc 0f32 6b3b
000003f0: 256b ccbc fd56 80b9 3168 75bc 77dc 2abd
-0.04521942 -0.03332769 -0.07844869 -0.028339272 -0.018780295 0.045104105 0.015175524 0.02627233
0.016669003 -0.03581428 -0.09824397 -0.050119597 -0.033409726 0.017551811 0.094888896 0.023297613
0.011631203 -0.026203532 -0.05264863 -0.05989232 0.049075197 -0.007355725 -0.004097597 0.007333082
0.015228766 0.038925245 0.04997706 0.058280624 0.026739746 0.0047865906 0.027351707 0.021080643
0.0064541586 0.017964264 0.01713627 0.018639846 0.009373595 -0.07256817 0.023744462 0.1352056
0.010113332 0.032314938 -0.08619539 -0.09437485 0.0020151779 0.026172562 -0.03063403 -0.009642774
0.044216014 -0.0077143144 0.063021824 -0.002246685 -0.021809993 0.03592025 0.022728711 -0.055781655
0.04731998 -0.008762965 -0.032263342 -0.07872412 0.048605103 -0.00088580896 -0.06717236 -0.02024982
-0.05170369 -0.011181692 0.051730487 -0.02582178 -0.025214214 -0.10163184 -0.07363744 -0.037687298
0.065192334 0.0025065255 -0.0042898254 0.009289483 0.08468432 0.02497042 -0.029801954 0.041307814
-0.019549867 -0.014388451 -0.023970375 -0.051612258 -0.106966525 -0.045786917 0.040558603 -0.029538639
0.04286623 0.013699324 0.004819756 0.07351768 0.033756066 0.048850823 0.009329951 -0.09493632
0.043626275 0.0038698472 0.0075553227 -0.013432107 0.035338495 0.01604648 -0.07805971 0.04511307
0.0021070675 -0.0136469845 -0.049245566 -0.06432342 0.08091295 -0.017722381 0.0056326427 0.009732579
0.016825715 -0.0013550592 0.0041965153 0.030253533 0.0027388185 -0.03481196 0.013291962 0.035239194
-0.0265551 0.06351573 0.062930256 0.046434842 0.008620185 -0.06626253 -0.03731163 -0.061039854
-0.0037537734 -0.044150833 -0.00085283036 0.052503094 0.12615547 0.043859676 0.026591554 -0.005123783
0.0039325557 0.0414051 -0.0039405413 0.0067940266 -0.08744526 0.033721324 0.019264592 0.021471966
0.013598972 -0.052190293 0.07052299 -0.015990557 -0.0057515497 0.032012206 0.01820875 0.0037318685
0.03758028 -0.112794705 -0.048895292 -0.07087524 -0.0073883277 -0.033413775 0.03298678 -0.056355126
-0.021923298 0.008801077 0.025043648 -0.0012402831 0.024650445 0.044334702 0.019582355 0.082738444
0.029371062 0.059386123 -0.013854506 0.060882237 0.0020638364 0.006637807 0.056375287 -0.026154395
0.011538038 0.03940555 0.02929729 -0.035145506 -0.06981138 0.005513531 0.024833977 0.016513174
-0.022422988 -0.043564428 0.05198028 0.032223456 0.020994648 0.048982583 -0.12819114 0.047543447
-0.0050443946 0.03613931 -0.015378595 -0.061195314 0.007841337 -0.018835764 0.04448222 0.105749875
-0.021800527 0.02353267 0.07051002 -0.0053418176 -0.056537777 -0.022052957 -0.08721815 -0.0133039355
-0.014386944 -0.056822352 0.0630269 -0.046682116 -0.010475082 -0.0760706 0.019224187 -0.0019198476
0.05025614 0.025566608 0.0044836574 -0.03337404 -0.07029545 -0.07650991 0.041956194 0.043473832
-0.040566146 0.00062833226 -0.029959226 0.022860749 0.06306086 0.049496647 -0.022103611 0.055130064
-0.01576628 -0.05712538 -0.05291151 -0.034975737 -0.055949986 -0.014019889 0.062946916 0.034233097
0.023743551 -0.004046067 -0.06870781 0.035892446 -0.016316688 0.031484656 -0.011642795 -0.0008774035
0.0037221487 0.06156125 -0.021739889 0.0035887992 -0.024953434 -0.00024478874 -0.014978454 -0.041714158
